models/tmp.pth (torch_old, 638512 bytes, 48 tensors)

en1.weight f4 [200, 4]
0.0035265447 -0.03418968 -0.09681223 0.07833884 -0.056075417 -0.10829256 0.03296576 0.050987843
-0.054931536 -0.29888195 0.041020546 0.2517272 0.06842692 0.09981646 0.12513906 -0.097836666
0.01314266 -0.017072272 0.26321203 0.1817302 -0.20767121 -0.33034444 -0.3255664 -0.06514769
0.085092224 0.47313976 0.30351657 -0.046069007 0.03314329 -0.39866623 0.27634153 -0.017307349
-0.20160924 0.066225 0.2654113 0.3746555 -0.027967647 0.133419 0.09311774 0.035350535
-0.053933136 -0.30309156 0.22182676 0.29476705 0.056129526 -0.087880075 -0.19328794 0.07456454
0.072358906 -0.02396655 0.09802612 0.0866201 0.17840692 -0.10832465 0.31659356 0.26983288
0.035888493 0.24216482 -0.28973746 0.017416175 0.09583184 -0.38710457 -0.07014716 -0.09765137
0.16582435 0.23529026 0.094862156 -0.14185542 -0.21876527 -0.14435866 0.40126133 0.19352576
0.50489515 -0.043562226 -0.09208305 0.1063115 0.003594236 0.006202408 0.0267287 0.07807817
-0.10435826 0.33376062 -0.08151424 0.24590221 0.035425883 0.33675793 0.2999589 -0.076968774
0.06394126 0.47176746 0.030303579 -0.021700688 0.021331752 -0.24903245 0.16361922 0.01337396
-0.04615852 0.28072894 0.04217329 0.040084485 0.17300788 0.051531553 -0.41723892 0.05120397
0.25329664 0.0030218635 0.11109757 -0.1257001 -0.13754834 -0.15877464 0.102296755 0.13550977
0.18864839 -0.14024597 -0.1209105 -0.10838726 -0.0057164966 0.11727002 -0.14293198 -0.11053937
0.12100867 0.24293509 0.2726505 -0.096754126 -0.01732942 -0.226253 0.013188108 -0.049631525
-0.15406309 -0.038940683 0.07374231 0.16467257 0.13430609 0.6990301 -0.058157414 -0.46845487
-0.00302841 -0.1782963 0.04930867 -0.004316992 -0.06451505 -0.48487157 -0.12583742 0.16528438
0.11942361 0.4891842 0.17185336 -0.1366115 -0.0718912 -0.027806705 -0.21357027 0.2869084
0.061653648 0.34337696 -0.38743946 -0.1077456 0.054360893 0.09105689 -0.10885927 -0.021586979
0.3138191 -0.22921823 -0.35997862 -0.079286836 0.00822938 0.38324076 0.31400403 -0.13881487
0.1993699 0.39121607 0.116414525 0.081897266 0.04796921 -0.38775483 -0.047085986 -0.06567518
0.033054706 -0.0016009293 0.27577937 -0.26083398 -0.020034906 0.15591225 0.0014408585 0.015482687
-0.12278266 0.40658593 -0.4322326 -0.14926544 0.04674523 0.26669747 -0.0004779517 -0.019588668
0.05810121 -0.25486317 -0.13060625 -0.07492898 -0.009158796 -0.0045690206 -0.056814015 -0.0034839392
-0.047235776 -0.10738617 0.0917588 0.057196226 0.09385893 0.14743483 -0.12609076 0.2116118
-0.096974075 0.089027464 0.062870726 0.0498788 0.000632375 -0.09928846 -0.0011651035 -0.05029108
0.07783601 0.25889254 0.18952717 -0.0034328522 -0.13488336 -0.062423818 0.31904796 0.14392786
0.01554643 -0.18863933 -0.023349922 -0.092468224 -0.08668301 -0.40392494 0.10884253 0.1318928
0.061050743 0.4578809 -0.06833436 -0.05158896 -0.00037948863 0.14438243 0.12534858 0.08042281
-0.052848205 -0.47612393 -0.13164617 0.024776924 0.12570111 -0.22304481 -0.16461483 -0.3253352
0.02590551 -0.3734682 0.039939847 -0.05291602 -0.3032146 -0.36272183 0.0400503 -0.19194406
00000000: 9a1d 673b 7a0a 0cbd 7e45 c6bd 1d70 a03d
00000010: 56af 65bd 7dc8 ddbd 1b07 073d a1d8 503d
00000020: e4ff 60bd 0e07 99be 2905 283d 63e2 803e
00000030: 6a23 8c3d 926c cc3d 7424 003e 975e c8bd
00000040: 5054 573c 26db 8bbc bac3 863e 7b17 3a3e
00000050: c3a7 54be e822 a9be a4b0 a6be 276c 85bd
00000060: d544 ae3d 603f f23e 8666 9b3e dbb2 3cbd
00000070: 42c1 073d fb1d ccbe a37c 8d3e 24c8 8dbc
00000080: a772 4ebe f9a0 873d fde3 873e d8d2 bf3e
00000090: 681c e5bc fe9e 083e 83b4 be3d b9cb 103d
000000a0: fee8 5cbd d12e 9bbe 8e26 633e b5eb 963e
000000b0: 13e8 653d 78fa b3bd 46ed 45be 4bb5 983d
000000c0: e830 943d 8055 c4bc ebc1 c83d e165 b13d
000000d0: 4eb0 363e 50d9 ddbd 8d18 a23e 8927 8a3e
000000e0: d0ff 123d 0efa 773e 7858 94be 5eac 8e3c
000000f0: 7c43 c43d 9232 c6be 50a9 8fbd 71fd c7bd
00000100: dccd 293e eeef 703e 1747 c23d 8c42 11be
00000110: 0104 60be c2d2 13be 2072 cd3e 9e2b 463e
00000120: cf40 013f 4e6e 32bd 0a96 bcbd d8b9 d93d
00000130: 468d 6b3b 923d cb3b 26f6 da3c 73e7 9f3d
00000140: c9b9 d5bd ace2 aa3e f0f0 a6bd cacd 7b3e
00000150: bb1a 113d 896b ac3e 3794 993e cea1 9dbd
00000160: a3f3 823d 818b f13e 363f f83c a4c5 b1bc
00000170: edbf ae3c 5d02 7fbe cc8b 273e 741e 5b3c
00000180: b710 3dbd b4bb 8f3e e6bd 2c3d a12f 243d
00000190: fa28 313e c012 533d 57a0 d5be 41bb 513d
000001a0: 19b0 813e 750a 463b 1f87 e33d 87b7 00be
000001b0: 79d9 0cbe d295 22be f680 d13d 13c3 0a3e
000001c0: 0b2d 413e a49c 0fbe ed9f f7bd 24fa ddbd
000001d0: 7351 bbbb 442b f03d c35c 12be 7762 e2bd
000001e0: 65d3 f73d fac3 783e d998 8b3e 0727 c6bd
000001f0: 6ef6 8dbc deae 67be ef12 583c 6d4a 4bbd
00000200: b7c2 1dbe 4480 1fbd 3506 973d ed9f 283e
00000210: 8987 093e a3f3 323f 7836 6ebd 51d9 efbe
00000220: 4a78 46bb 4e93 36be e3f7 493d 8e75 8dbb
00000230: 7720 84bd 1641 f8be 86db 00be 4f40 293e
00000240: 5e94 f43d 5a76 fa3e 54fa 2f3e e3e3 0bbe
00000250: b23b 93bd e3ca e3bc 2ab2 5abe a8e5 923e
00000260: 8988 7c3d 1bcf af3e 775e c6be baa9 dcbd
00000270: 87a9 5e3d 097c ba3d 9cf1 debd 2dd7 b0bc
00000280: e6ac a03e 2fb8 6abe 1e4f b8be 2361 a2bd
00000290: 85d4 063c 2238 c43e 23c5 a03e 7c25 0ebe
000002a0: a027 4c3e 794d c83e bd6a ee3d c1b9 a73d
000002b0: 5d7b 443d cd87 c6be 3cdd 40bd b580 86bd
000002c0: 5f64 073d 46d6 d1ba f432 8d3e 088c 85be
000002d0: 3e20 a4bc 76a7 1f3e 30db bc3a 19ab 7d3c
000002e0: 7a75 fbbd 082c d03e 974d ddbe 0ad9 18be
000002f0: ed77 3f3d 928c 883e 9795 fab9 6a78 a0bc
00000300: 89fb 6d3d 6d7d 82be a5bd 05be 5d74 99bd
00000310: c60e 16bc b9b7 95bb d0b5 68bd cd52 64bb
00000320: 4d7a 41bd 48ed dbbd 0aec bb3d 9746 6a3d
00000330: 1c39 c03d 28f9 163e f01d 01be c4b0 583e
00000340: 589a c6bd 0854 b63d 5ec2 803d b64d 4c3d
00000350: f8c5 253a c057 cbbd 63b6 98ba 05fe 4dbd
00000360: 7c68 9f3d 908d 843e 6913 423e b4f9 60bb
00000370: dd1e 0abe 1eb0 7fbd 415a a33e d361 133e
00000380: 74b6 7e3c ab2a 41be 5648 bfbc fb5f bdbd
00000390: dd86 b1bd 40cf cebe d5e8 de3d e80e 073e
000003a0: 5810 7a3d 5e6f ea3e e3f2 8bbd f24e 53bd
000003b0: 1af6 c6b9 fdd8 133e 615b 003e b7b4 a43d
000003c0: 5c77 58bd 84c6 f3be 41ce 06be faf8 ca3c
000003d0: cbb7 003e dc65 64be ca90 28be 5692 a6be
000003e0: cb37 d43c 3937 bfbe f797 233d 78be 58bd
000003f0: f23e 9bbe adb6 b9be c90b 243d fc8c 44be

en1.bias f4 [200]
-0.57676524 -0.029769028 0.020656867 -0.39346722 -0.05852257 -0.3822503 -0.044250097 0.4707607
0.52432954 -0.24700122 -0.30500588 -0.5255158 -0.13145413 0.48974067 -0.67070335 0.4727258
0.49696824 0.2328407 0.42235124 -0.35471407 0.25372195 -0.59272474 -0.05533287 -0.28977695
0.26734138 0.14353289 0.6553457 -0.34725228 0.21306792 0.6352774 -0.35134006 0.3318971
0.1907984 -0.4636622 0.07651923 -0.19423065 0.33650205 0.1915662 0.6137721 0.02221313
0.42163467 -0.098156154 -0.47983372 -0.45425498 -0.40746698 0.05782487 0.0077489405 0.068432026
-0.2365806 -0.018557072 -0.10503531 -0.15067331 0.05300086 0.010689813 -0.15362276 -0.43358284
0.23218235 0.17190295 -0.32696143 -0.1326471 0.45600206 0.025111428 -0.1451853 -0.15010138
0.07445559 -0.009128578 -0.57271796 -0.0068801604 -0.51438034 -0.5831449 0.48514405 0.084676296
-0.18536848 0.099707454 0.49421284 -0.36095673 -0.13996328 0.18741271 0.12804252 0.0014944249
-0.41165006 -0.29896423 -0.4456909 0.52322996 -0.34619978 -0.25213972 -0.47985193 0.06559322
-0.5344971 -0.033877637 0.18420118 0.21814914 -0.16738717 0.10866477 -0.0792532 -0.3775607
0.52767605 -0.32625854 -0.5630313 0.08707706 -0.24096513 0.27734897 -0.570773 0.3331827
0.13443598 -0.34999147 -0.57974607 0.17899553 0.09530757 0.18299915 -0.67392606 -0.025621675
0.14777398 -0.40319252 0.054126218 -0.12603693 -0.45908383 -0.28050935 -0.1974946 -0.458268
-0.49718896 -0.66233414 -0.63794553 0.6238714 0.08995902 0.3162155 -0.27082452 0.33687276
-0.39536294 -0.3378365 -0.5426629 -0.48278567 0.35507727 -0.057621706 -0.00015975288 0.22285056
0.1404735 0.22592907 0.5432081 0.2984834 -0.15331061 -0.14830638 -0.03236249 0.31982568
-0.24299593 0.5654199 0.5375163 -0.3726628 -0.0927394 -0.16028735 -0.36997664 -0.1349417
-0.53765005 0.05999852 -0.09982769 -0.59469765 0.3381619 0.3311826 -0.17441617 -0.5465189
0.3246128 -0.12391793 0.056981586 0.5690372 -0.69735044 0.47592476 -0.06760928 0.20208557
-0.41542825 -0.6148957 -0.3838258 0.44541448 0.35411727 0.16879153 0.40621787 0.23320848
0.33876133 0.15427189 0.39498323 0.031369563 0.42369646 0.24285083 -0.6099318 0.45783302
0.47024825 -0.34689838 0.4799857 -0.63305205 -0.00038199002 0.09478212 0.23969075 0.0014050439
-0.20007615 0.5769647 0.13139723 0.438267 0.12840019 0.3266537 -0.24746871 0.42383075
00000000: e3a6 13bf 2dde f3bc 9738 a93c 8974 c9be
00000010: 5db5 6fbd 50b6 c3be 973f 35bd 8c07 f13e
00000020: 763a 063f e3ed 7cbe bb29 9cbe 3488 06bf
00000030: e99b 06be 4abf fa3e 37b3 2bbf 1e09 f23e
00000040: 9f72 fe3e cb6d 6e3e 6c3e d83e 159d b5be
00000050: d8e7 813e cfbc 17bf b8a4 62bd a55d 94be
00000060: f8e0 883e 49fa 123e bcc4 273f 0dcb b1be
00000070: 7a2e 5a3e 8aa1 223f d8e2 b3be 6bee a93e
00000080: a860 433e 2265 edbe 1db6 9c3d 66e4 46be
00000090: ff49 ac3e ee29 443e 2b20 1d3f 4ff8 b53c
000000a0: 80e0 d73e 1806 c9bd c4ac f5be 1c94 e8be
000000b0: 839f d0be c5d9 6c3d d3ea fd3b 1726 8c3d
000000c0: 2f42 72be 0005 98bc c11c d7bd 1b4a 1abe
000000d0: 6e17 593d 5324 2f3c 494f 1dbe 92fe ddbe
000000e0: 36c1 6d3e 5407 303e 7d67 a7be a4d4 07be
000000f0: 1a79 e93e 7bb6 cd3c 75ab 14be 2db4 19be
00000100: 2c7c 983d 0890 15bc a59d 12bf f872 e1bb
00000110: 6eae 03bf fc48 15bf cd64 f83e c46a ad3d
00000120: 3cd1 3dbe 6c33 cc3d 7709 fd3e 52cf b8be
00000130: 8952 0fbe 1ee9 3f3e 941d 033e 94e0 c33a
00000140: ccc3 d2be d711 99be 9931 e4be 66f2 053f
00000150: 1941 b1be 7518 81be 27af f5be bd55 863d
00000160: cdd4 08bf 47c3 0abd 3c9f 3c3e 7d62 5f3e
00000170: 8b67 2bbe a38b de3d 804f a2bd a34f c1be
00000180: c715 073f 5c0b a7be d222 10bf 7555 b23d
00000190: 90bf 76be af00 8e3e 2e1e 12bf ec96 aa3e
000001a0: 96a9 093e 1532 b3be 3d6a 14bf 9b4a 373e
000001b0: 9e30 c33d 2164 3b3e 6b86 2cbf 8ce4 d1bc
000001c0: 1052 173e 406f cebe 74b3 5d3d d30f 01be
000001d0: 090d ebbe ec9e 8fbe 063c 4abe 1aa2 eabe
000001e0: 8d8f febe bb8e 29bf 6650 23bf 09b6 1f3f
000001f0: 6f3c b83d ffe6 a13e 83a9 8abe 967a ac3e
00000200: 036d cabe e8f8 acbe f5eb 0abf af2f f7be
00000210: b0cc b53e bd04 6cbd 5683 27b9 f032 643e
00000220: 49d8 0f3e f359 673e b00f 0b3f d1d2 983e
00000230: 75fd 1cbe a1dd 17be 888e 04bd 31c0 a33e
00000240: edd3 78be 5cbf 103f ab9a 093f a9cd bebe
00000250: 28ee bdbd 5e22 24be 946d bdbe 282e 0abe
00000260: 6fa3 09bf 02c1 753d 7672 ccbd 1b3e 18bf
00000270: 8e23 ad3e c490 a93e 279a 32be aae8 0bbf
00000280: a633 a63e afc8 fdbd 8665 693d 6cac 113f
00000290: 8f85 32bf 69ac f33e bc76 8abd 85ef 4e3e
000002a0: 03b3 d4be ce69 1dbf d184 c4be 5e0d e43e
000002b0: dc4e b53e b0d7 2c3e cafb cf3e 34ce 6e3e
000002c0: 2072 ad3e 73f9 1d3e 3e3b ca3e 5f7d 003d
000002d0: beee d83e e3ad 783e 7e24 1cbf 1769 ea3e
000002e0: 61c4 f03e aa9c b1be b0c0 f53e b30f 22bf
000002f0: d545 c8b9 211d c23d 7e71 753e 7329 b83a
00000300: c3e0 4cbe f5b3 133f ff8c 063e 8864 e03e
00000310: 577b 033e 273f a73e 7068 7dbe 5800 d93e

en2.weight f4 [100, 200]
0.03237141 -0.00097534864 -0.08524695 -0.006843343 0.00014862142 0.0490361 0.008292703 -0.0050835325
0.010425036 -0.06899018 -0.012967748 -0.047623925 -0.064075455 0.03923242 -0.05013293 0.052197997
-0.073335454 -0.030172607 0.008691832 -0.0059109484 0.04311301 0.029976191 -0.09615783 -0.041547988
-0.030236771 -0.019780142 -0.039007027 -0.03497678 0.064592734 -0.030040748 -0.081167035 0.02065401
0.04575439 0.04241361 -0.034655277 0.09115413 -0.026915524 -0.020801144 0.009277141 0.08517616
0.039463248 0.0776752 -0.024414806 -0.025387526 -0.025985695 -0.082923174 0.03594294 0.011259862
0.04708808 -0.046518013 -0.047709253 -0.1039371 -0.05870514 -0.01829518 -0.034298554 0.020417633
0.030681245 0.052996777 -0.05751833 -0.057137687 0.107991286 0.026496962 0.009342763 0.05162026
0.13922103 -0.020404112 0.039476525 -0.041217234 -0.02795292 0.0064046993 -0.073889084 0.03956165
0.041249704 0.05965986 -0.05650805 -0.067702025 -0.04440478 0.0832524 0.03185209 0.028769612
-0.026653249 -0.084574 0.042249803 -0.020001493 0.018621728 -0.042167097 0.031322565 0.18621668
0.004284298 -0.00353007 0.06274897 0.021728959 -0.07983032 0.061597 0.10542103 0.058303695
0.014953557 0.059435327 -0.029660929 -0.017206497 -0.03950003 0.058344375 -0.057646744 0.065744326
0.056312837 -0.00043085671 -0.09605454 -0.083435856 -0.02177894 0.113310464 0.04724498 0.0039474946
-0.02981735 0.062461227 0.09472136 0.022306506 -0.07925509 -0.061512582 -0.0065444666 0.01697242
0.012183843 0.028859982 -0.009410945 0.037763644 0.01029859 0.051841956 -0.09979531 -0.038861446
-0.011454675 -0.04431165 -0.0018488689 -0.01574783 0.102376446 0.04912488 -0.08235083 0.00037321815
-0.029311344 0.08617723 0.00973764 -0.040598124 0.005973009 0.040125936 -0.037163228 -0.020760605
-0.068664424 0.10011103 0.032853138 0.08887273 0.021839108 0.18499461 0.05649051 -0.04167204
0.040976416 0.0865886 -0.05622957 -0.039117068 -0.06479133 0.054837923 0.009212412 -0.079033084
-0.019059846 -0.039672468 -0.1440599 -0.0044691507 0.004609923 -0.057185207 0.07960198 0.01637692
0.0391313 0.010120812 -0.04474057 -0.0285234 -0.029149566 0.021491384 -0.033599198 -0.016888503
-0.03138895 -0.095847785 0.06942465 -0.044753745 -0.006289973 -0.051757433 -0.0020141897 -0.107986584
-0.03658608 0.009381779 0.008385776 0.017748596 0.061706703 -0.0026756215 0.044369593 0.06033985
-0.013824807 -0.020434337 0.08671014 -0.038226567 0.08320751 0.05203077 -0.09549395 -0.04311635
-0.17051917 -0.02905083 -0.03294402 -0.10932151 -0.017284745 0.048364248 -0.109460674 0.038581993
-0.08061749 -0.034858808 -0.07574327 -0.057427593 -0.14614329 -0.040397815 -0.05647599 -0.014092227
-0.024330625 0.032000713 0.07225684 -0.18832773 0.0010897456 -0.08860734 -0.023686515 0.0044674766
0.0077787475 0.070787266 0.06535093 -0.026743576 0.050770264 0.08261442 -0.10380842 0.09885172
-0.07074589 -0.020566193 -0.025641773 0.071806245 -0.009636996 0.14228493 0.10012099 0.06629754
-0.054841276 -0.05532725 -0.123596646 -0.0012061527 -0.050638225 -0.09330005 0.09353284 -0.033371113
0.012846342 -0.012571436 -0.006725913 0.097582966 -0.07122494 -0.011348356 -0.14061327 -0.080214344
00000000: e297 043d 8aae 7fba f495 aebd 1f3e e0bb
00000010: 42d7 1b39 14da 483d 1ede 073c c393 a6bb
00000020: c5cd 2a3c b94a 8dbd ad76 54bc 4e11 43bd
00000030: fe39 83bd 2db2 203d 3058 4dbd 91cd 553d
00000040: e630 96bd 8b2c f7bc 3068 0e3c a1b0 c1bb
00000050: 4497 303d a190 f53c 65ee c4bd 392e 2abd
00000060: 1bb3 f7bc f709 a2bc d5c5 1fbd d043 0fbd
00000070: 3249 843d 0418 f6bc e73a a6bd 9932 a93c
00000080: f568 3b3d e5b9 2d3d b1f2 0dbd 04af ba3d
00000090: f27d dcbc 2967 aabc 26ff 173c d770 ae3d
000000a0: 37a4 213d 2d14 9f3d 8f01 c8bc 80f9 cfbc
000000b0: f4df d4bc a0d3 a9bd e738 133d 497b 383c
000000c0: 6edf 403d ac89 3ebd c76a 43bd f9dc d4bd
000000d0: cd74 70bd c6df 95bc a47c 0cbd e142 a73c
000000e0: 3c57 fb3c 2613 593d 5798 6bbd 3509 6abd
000000f0: 892a dd3d 2810 d93c 6312 193c c46f 533d
00000100: f58f 0e3e 8626 a7bc 23b2 213d 67d3 28bd
00000110: 86fd e4bc 83de d13b 2953 97bd 660b 223d
00000120: 73f5 283d e65d 743d fc74 67bd 5ca7 8abd
00000130: c9e1 35bd 3c80 aa3d 5677 023d 40ae eb3c
00000140: ea57 dabc 2235 adbd 210e 2d3d 2cda a3bc
00000150: 988c 983c 68b7 2cbd 174c 003d 96af 3e3e
00000160: 4c63 8c3b bf58 67bb 8882 803d ee00 b23c
00000170: 147e a3bd 234d 7c3d fbe6 d73d dbcf 6e3d
00000180: c4ff 743c 7572 733d 7afb f2bc a4f4 8cbc
00000190: c9ca 21bd 83fa 6e3d fe1e 6cbd f6a4 863d
000001a0: 4aa8 663d 9ce4 e1b9 3eb8 c4bd 6be0 aabd
000001b0: bf69 b2bc 510f e83d f483 413d fc59 813b
000001c0: 8443 f4bc 58d7 7f3d 46fd c13d 22bc b63c
000001d0: 7e50 a2bd 9ef4 7bbd f772 d6bb bf09 8b3c
000001e0: be9e 473c c56b ec3c 5d30 1abc 0dae 1a3d
000001f0: 6bbb 283c 3b58 543d 7c61 ccbd 2e2d 1fbd
00000200: 64ac 3bbc 2280 35bd bf55 f2ba 9801 81bc
00000210: beaa d13d 2c37 493d 8da7 a8bd 7eac c339
00000220: 581e f0bc b07d b03d 9f8a 1f3c 384a 26bd
00000230: 3bb9 c33b 185b 243d 7838 18bd 2512 aabc
00000240: ef9f 8cbd 0307 cd3d 0391 063d e802 b63d
00000250: eee7 b23c 3a6f 3d3e 9862 673d 4db0 2abd
00000260: e3d6 273d 5d55 b13d fa50 66bd 3839 20bd
00000270: 51b1 84bd bb9d 603d a8ef 163c 19dc a1bd
00000280: 6523 9cbc 997f 22bd 7084 13be f471 92bb
00000290: d60e 973b 093b 6abd 5d06 a33d e428 863c
000002a0: 2448 203d c3d1 253c e341 37bd e8a9 e9bc
000002b0: 12cb eebc b30e b03c 509f 09bd c259 8abc
000002c0: b391 00bd d84b c4bd 832e 8e3d b44f 37bd
000002d0: 1e1c cebb 9aff 53bd 7f00 04bb 1228 ddbd
000002e0: 49db 15bd 08b6 193c 7e64 093c 8165 913c
000002f0: 2bc0 7c3d 7b59 2fbb e4bc 353d eb26 773d
00000300: 7181 62bc e965 a7bc 1695 b13d 7693 1cbd
00000310: b368 aa3d 371e 553d 5592 c3bd c59a 30bd
00000320: 949c 2ebe 02fc edbc 4ff0 06bd f5e3 dfbd
00000330: bd98 8dbc 9719 463d eb2c e0bd 2708 1e3d
00000340: c81a a5bd 1cc8 0ebd 4a1f 9bbd 3239 6bbd
00000350: 96a6 15be 2e78 25bd 5e53 67bd 16e3 66bc
00000360: 0551 c7bc 2e13 033d 65fb 933d fcd8 40be
00000370: cbd5 8e3a c477 b5bd 390a c2bc e963 923b
00000380: dde4 fe3b eaf8 903d b5d6 853d 5815 dbbc
00000390: 7bf4 4f3d c031 a93d 8299 d4bd c572 ca3d
000003a0: 39e3 90bd 6f7a a8bc b20e d2bc 270f 933d
000003b0: 7ee4 1dbc 24b3 113e 3c0c cd3d 01c7 873d
000003c0: 3fa1 60bd d49e 62bd 3d20 fdbd c517 9eba
000003d0: 076a 4fbd 1914 bfbd 258e bf3d 26b0 08bd
000003e0: 7779 523c 6df8 4dbc 0c65 dcbb 94d9 c73d
000003f0: 62de 91bd 74ee 39bc edfc 0fbe 6b47 a4bd

en2.bias f4 [100]
-0.024493927 0.000863272 -0.095772795 -0.100444235 0.13911818 0.07810871 -0.06357427 -0.012799705
0.059440807 -0.16128697 0.074433684 0.10699537 0.016529879 -0.12031986 -0.16986254 0.025235437
0.040078886 -0.019727038 0.16483943 0.17394744 0.015090068 0.13861495 -0.009546378 0.16595627
0.057890967 0.012287349 -0.0977446 -0.20581754 -0.0036249065 5.5679146e-05 -0.0911649 0.1301521
-0.09832137 0.11676877 0.3130263 -0.2847157 -0.047246903 0.11757832 -0.034086205 -0.08795275
-0.0012957755 -0.12024951 0.07822936 -0.27430785 0.15892535 0.11782938 0.06330446 -0.19127019
-0.022650795 -0.032014884 -0.22107847 -0.046343137 -0.025287872 -0.02174658 0.09517043 -0.16831182
-0.16306043 0.20444174 -0.0033564847 -0.0055314256 0.15614182 -0.05880822 -0.15150876 0.01758337
-0.11718091 0.041603476 0.039286435 -0.04318702 -0.1269865 0.1697572 0.049143244 0.005350086
-0.014189044 0.123024754 0.14129418 0.058741145 0.01121234 -0.20063275 0.109418765 0.0820171
-0.005225994 0.056435127 0.016756903 -0.049603052 0.11997792 -0.035080474 0.01612079 -0.20261733
0.07756892 -0.028245594 0.33458775 0.0063958103 0.11796618 0.06423241 0.1914772 -0.17689218
0.06839015 -0.15281361 0.31189245 -0.07370283
00000000: 7da7 c8bc 344d 623a 8724 c4bd b5b5 cdbd
00000010: ff74 0e3e 76f7 9f3d 3a33 82bd dbb5 51bc
00000020: 3478 733d 6928 25be b070 983d 6320 db3d
00000030: ab69 873c 426a f6bd 72f0 2dbe 8cba ce3c
00000040: c229 243d 999a a1bc abcb 283e 471f 323e
00000050: 553c 773c 14f1 0d3e 6968 1cbc 71f0 293e
00000060: 141f 6d3d e150 493c 522e c8bd d5c1 52be
00000070: d78f 6dbb 0789 6938 aab4 babd 9846 053e
00000080: b75c c9bd 7724 ef3d fc44 a03e 42c6 91be
00000090: f885 41bd e7cc f03d fa9d 0bbd 9220 b4bd
000000a0: 03d7 a9ba 6045 f6bd b736 a03d 1472 8cbe
000000b0: 54bd 223e 8850 f13d c5a5 813d 55dc 43be
000000c0: 298e b9bc 0a22 03bd 6562 62be 4dd2 3dbd
000000d0: 8328 cfbc e225 b2bc b7e8 c23d ef59 2cbe
000000e0: 50f9 26be 2d59 513e 78f8 5bbb f640 b5bb
000000f0: a4e3 1f3e e3e0 70bd 1d25 1bbe 000b 903c
00000100: 8cfc efbd 6868 2a3d d0ea 203d dfe4 30bd
00000110: c008 02be d5d4 2d3e 6d4a 493d c64f af3b
00000120: 2a79 68bc 67f4 fb3d 6caf 103e 8e9a 703d
00000130: f6b3 373c ac72 4dbe f216 e03d 95f8 a73d
00000140: d13e abbb 8528 673d c645 893c 922c 4bbd
00000150: fcb6 f53d 8bb0 0fbd bf0f 843c eb7a 4fbe
00000160: 74dc 9e3d 4e63 e7bc 164f ab3e f293 d13b
00000170: 4198 f13d 488c 833d 9912 443e 3923 35be
00000180: 2310 8c3d 2c7b 1cbe 5eb0 9f3e 82f1 96bd

en3.weight f4 [50, 100]
-0.22271056 -0.13220914 -0.14807378 -0.26725325 0.09718952 0.053551115 -0.06511207 0.06916689
-0.08217018 -0.24707866 -0.0019085956 0.25399154 -0.22641206 0.13013718 -0.078671485 0.021254176
0.18739487 -0.04629558 0.03914899 0.10194574 0.04205437 0.27361515 0.043565266 0.16698071
-0.09835645 -0.09827302 -0.023796085 -0.058831703 -0.010518861 -0.31600773 0.027180474 0.10861722
-0.08079192 0.1450638 0.14157547 -0.18892129 0.024959024 0.05258904 -0.14575285 0.11659174
-0.00060701737 -0.076649114 0.230325 -0.06901437 -0.12541826 0.023880018 0.24825321 0.027557306
0.22270931 0.09135572 -0.16543345 -0.1638845 0.116436444 -0.005887642 -0.15760106 -0.19772281
-0.5815714 0.1299927 -0.16534227 0.050588153 0.096826084 0.16403423 0.0747952 -0.18005015
0.08203401 0.026879981 -0.059950363 -0.107791744 -0.028616533 -0.04258582 -0.01826413 -0.015343609
-0.020441735 0.049993575 -0.18288304 -0.016220374 -0.13976425 -0.11904793 -0.026244124 -0.07656725
0.17495926 -0.011036329 0.11443614 0.13833168 0.13950402 0.08675467 -0.31135374 -0.054225724
0.12004626 -0.19303602 0.12245838 -0.028024647 -0.116794385 0.09214504 0.13168122 0.025403336
0.09071579 -0.31715488 0.28404057 -0.08535045 0.0215792 0.03255043 -0.07999677 -0.09457781
0.13718103 0.13701099 -0.055419024 -0.025582341 0.034922898 -0.24188559 0.16969298 -0.06124513
-0.07908163 -0.15350668 -0.035183527 -0.030676233 0.12445618 0.08574318 0.10750105 0.19940029
0.085568935 0.065739736 -0.101224 0.18972267 0.06559458 -0.042027175 -0.12499091 -0.1538767
-0.099255204 -0.06603905 -0.04973311 0.06655936 -0.07756361 0.13814306 0.10917879 -0.17425048
-0.09890971 0.028098468 0.18038502 0.0078584645 -0.16426218 -0.16865294 -0.08414336 -0.1152861
-0.019791035 0.08025336 0.104408845 -0.21149391 0.108895995 -0.04545018 -0.13598706 0.096723735
0.080499016 -0.08765968 0.016705655 -0.049931295 -0.09048887 0.16572875 0.14412852 0.18183112
0.15045688 -0.04021372 -0.19486114 0.18350804 0.044772048 0.12267524 0.023026451 -0.0010109417
-0.16192701 0.035744857 0.0033367663 0.08648872 0.09003037 0.13523686 0.033401724 -0.042365048
0.047324244 -0.0513781 0.2458921 -0.08128318 0.070091814 0.05804218 0.1574377 -0.09210113
0.1092482 -0.0445051 -0.039382447 -0.12409853 0.16641039 0.048180994 -0.0074402364 -0.10605498
0.26381236 0.00042266716 0.16583239 -0.16559485 0.14675166 -0.008741024 -0.0024397876 0.07179687
-0.06141633 -0.005971348 0.016904566 -0.0778116 0.02462802 0.11935291 0.09469519 0.0028757905
-0.2692035 -0.047226038 -0.10114725 -0.0393907 0.04221227 -0.0641755 -0.046035413 0.06188452
0.07730481 -0.05574135 -0.10088347 -0.025376176 -0.015832324 0.1441661 0.116295025 0.08245417
-0.004795429 -0.121656604 -0.07229225 0.041067623 0.0023424004 -0.1344632 0.119066365 -0.013436824
-0.026721185 -0.09050893 0.06183086 -0.15211399 0.0123446835 0.075997 0.07753017 0.0284212
-0.0016545476 -0.013792454 0.01903029 0.09340278 0.008230392 0.06519878 -0.052662436 -0.05657921
0.077001505 -0.05058151 0.051625177 0.02227248 0.015613432 -0.039730493 0.0532946 -0.111066006
00000000: 3d0e 64be d561 07be a7a0 17be 6bd5 88be
00000010: 4d0b c73d 6a58 5b3d 7a59 85bd 5fa7 8d3d
00000020: d748 a8bd 3002 7dbe d729 faba 2e0b 823e
00000030: 90d8 67be ae42 053e 841e a1bd 3d1d ae3c
00000040: 71e4 3f3e 6fa0 3dbd b15a 203d eec8 d03d
00000050: 3441 2c3d 4917 8c3e 7e71 323d fefc 2a3e
00000060: 1b6f c9bd 5d43 c9bd 02f0 c2bc 83f9 70bd
00000070: 4d57 2cbc c4cb a1be 96a9 de3c b472 de3d
00000080: 3c76 a5bd 9b8b 143e 29f9 103e 9574 41be
00000090: de76 cc3c 9b67 573d 3c40 15be a6c7 ee3d
000000a0: 3f20 1fba 36fa 9cbd 51da 6b3e 6857 8dbd
000000b0: a56d 00be 07a0 c33c 1736 7e3e dcbf e13c
000000c0: e90d 643e b518 bb3d 6367 29be 57d1 27be
000000d0: 3b76 ee3d 1fed c0bb 2c62 21be d977 4abe
000000e0: dde1 14bf ce1c 053e 7c4f 29be 8635 4f3d
000000f0: c14c c63d 97f8 273e 3a2e 993d 115f 38be
00000100: 7201 a83d 6833 dc3c 838e 75bd ebc1 dcbd
00000110: 386d eabc 786e 2ebd a89e 95bc c363 7bbc
00000120: 6d75 a7bc 10c6 4c3d b145 3bbe 97e0 84bc
00000130: 5c1e 0fbe 67cf f3bd ebfd d6bc 4acf 9cbd
00000140: 8528 333e b8d1 34bc 7f5d ea3d d2a6 0d3e
00000150: 24da 0e3e 6fac b13d c269 9fbe cb1b 5ebd
00000160: d0da f53d 3cab 45be 76cb fa3d f293 e5bc
00000170: e531 efbd 8ab6 bc3d 71d7 063e a81a d03c
00000180: 33c9 b93d 2062 a2be c46d 913e 37cc aebd
00000190: ddc6 b03c 9a53 053d 59d5 a3bd 03b2 c1bd
000001a0: 2f79 0c3e 9c4c 0c3e 0fff 62bd 0f92 d1bc
000001b0: 500b 0f3d dbb0 77be ffc3 2d3e 2cdc 7abd
000001c0: 8df5 a1bd db30 1dbe 9a1c 10bd b94c fbbc
000001d0: e2e2 fe3d 1f9a af3d 8329 dc3d 972f 4c3e
000001e0: c43e af3d 8ea2 863d 874e cfbd a946 423e
000001f0: 7356 863d b024 2cbd 3cfb ffbd db91 1dbe
00000200: 5046 cbbd 7b3f 87bd f2b4 4bbd 4650 883d
00000210: acd9 9ebd 6075 0d3e 2199 df3d b86e 32be
00000220: 2d91 cabd c22e e63c dab6 383e cac0 003c
00000230: 5834 28be 5bb3 2cbe 5b53 acbd 1e1b ecbd
00000240: cf20 a2bc e05b a43d 4ed4 d53d dc91 58be
00000250: dd04 df3d f829 3abd 3140 0bbe 1817 c63d
00000260: abdc a43d eb86 b3bd 4cda 883c c284 4cbd
00000270: 3b52 b9bd ccb4 293e 6d96 133e f031 3a3e
00000280: 5e11 1a3e 24b7 24bd ae89 47be 88e9 3b3e
00000290: e562 373d 283d fb3d f8a1 bc3c 9381 84ba
000002a0: 32d0 25be 3369 123d a6ad 5a3b ff20 b13d
000002b0: d861 b83d 887b 0a3e 3fd0 083d f986 2dbd
000002c0: 11d7 413d d871 52bd 23cb 7b3e cc77 a6bd
000002d0: 4c8c 8f3d a3bd 6d3d 5937 213e 849f bcbd
000002e0: 85bd df3d fb4a 36bd 7d4f 21bd 5f27 febd
000002f0: 7c67 2a3e 6f59 453d 3acd f3bb 5a33 d9bd
00000300: 6a12 873e 6d99 dd39 f7cf 293e b291 29be
00000310: 1146 163e 8336 0fbc d8e4 1fbb 3d0a 933d
00000320: b18f 7bbd 4cab c3bb 727b 8a3c b05b 9fbd
00000330: b4c0 c93c 4c6f f43d 8def c13d c277 3c3b
00000340: 0bd5 89be 1770 41bd 4a26 cfbd 2558 21bd
00000350: c6e6 2c3d 726e 83bd a18f 3cbd 9f7a 7d3d
00000360: fc51 9e3d 0b51 64bd fe9b cebd b3e1 cfbc
00000370: cab2 81bc 47a0 133e 162c ee3d bbdd a83d
00000380: f922 9dbb 1927 f9bd f60d 94bd 8636 283d
00000390: f582 193b b9b0 09be 11d9 f33d 2026 5cbc
000003a0: 63e6 dabc bf5c b9bd 5b42 7d3d c5c3 1bbe
000003b0: 5b41 4a3c 51a4 9b3d 23c8 9e3d 94d3 e83c
000003c0: 68dd d8ba bff9 61bc 69e5 9b3c f549 bf3d
000003d0: c4d8 063c f086 853d 91b4 57bd 9abf 67bd
000003e0: f7b2 9d3d 8f2e 4fbd ec74 533d c774 b63c
000003f0: 7bcf 7f3c 71bc 22bd 704b 5a3d 9376 e3bd

en3.bias f4 [50]
0.21694212 0.13018636 0.06457879 0.08706498 0.09366771 0.08617521 0.02327248 -0.061689727
0.07760801 0.118148215 0.08006438 -0.017092856 0.020634102 -0.069928065 0.0113627715 -0.042234894
0.094532326 0.026036872 0.06710507 0.11498009 -0.0319324 0.0053754016 0.10452369 -0.090128034
0.187905 0.06868882 -0.13979165 0.019563027 -0.022282664 -0.11711821 0.18970698 0.08386391
0.30187976 -0.10816455 0.014783764 -0.10015662 -0.050171614 0.045061298 -0.057519417 0.10075507
0.10563534 0.17720455 0.155666 -0.030688498 0.025891675 -0.031264726 -0.013422954 0.08110725
0.12677673 0.026543595
00000000: 1326 5e3e 934f 053e e241 843d 204f b23d
00000010: dbd4 bf3d a17c b03d eea5 be3c 5eae 7cbd
00000020: f3f0 9e3d b1f7 f13d cbf8 a33d 5106 8cbc
00000030: d908 a93c 7236 8fbd eb2a 3a3c 7ffe 2cbd
00000040: 2a9a c13d 474b d53c 626e 893d ae7a eb3d
00000050: 8ccb 02bd 2324 b03b 8410 d63d 0c95 b8bd
00000060: 2b6a 403e b9ac 8c3d 8b25 0fbe a442 a03c
00000070: 228a b6bc acdb efbd 8c42 423e d7c0 ab3d
00000080: fc8f 9a3e 6085 ddbd 9a37 723c ea1e cdbd
00000090: c080 4dbd 3292 383d 7b99 6bbd ad58 ce3d
000000a0: 5757 d83d 1c75 353e e866 1f3e 7266 fbbc
000000b0: c71a d43c 710f 00bd f3eb 5bbc 8f1b a63d
000000c0: c2d1 013e f471 d93c

en4.weight f4 [3, 50]
-0.14960976 0.052380014 -0.12963049 -0.02494609 -0.04330191 0.016276918 -0.04553575 -0.05051824
0.045893043 0.01992927 0.11729815 -0.014316496 0.083007924 -0.102249265 0.070556395 0.00100756
-0.033425685 0.030665915 -0.044752046 0.088662006 0.061597124 0.010219664 0.0046449164 0.013006405
0.037368547 -0.059969053 -0.10762202 -0.0379008 0.09096636 0.1836686 0.12784743 0.030139145
0.14027733 -0.09206719 0.047857735 -0.04650177 0.068893224 0.01413565 -0.039393567 0.077904545
0.09674336 0.032568622 0.109837145 0.03430714 -0.17048274 0.009001089 0.08679601 0.010544406
0.12945747 0.018482918 -0.055841673 0.06452717 0.09879439 -0.15751374 -0.14110094 -0.07610282
0.067467794 -0.12709935 0.0042379117 -0.03205237 -0.11918643 0.12509473 0.043712318 0.019847589
0.03430924 -0.022929855 -0.09148269 -0.04695732 -0.058496818 -0.10778673 -0.05255911 -0.021832198
-0.14012878 -0.01564862 -0.074364714 0.06277694 0.043251477 0.07450836 -0.07108816 0.0743127
0.07601054 -0.065905906 0.07212507 0.09464345 0.03066493 0.09378703 0.063257664 -0.021336494
-0.006595816 0.124803424 0.17994855 -0.11101416 0.09881574 0.059329323 -0.14685218 0.012561485
0.123700894 0.036554225 -0.055644754 0.0057232906 0.06597039 0.08424325 -0.15736844 0.11935707
-0.070344895 0.054178856 -0.09853163 0.07311793 0.13965628 -0.069425255 -0.049050838 0.08025655
-0.08895664 -0.10527585 -0.083585925 0.037331358 0.12227511 0.04004045 -0.003046207 0.017552285
0.019187255 0.0792731 0.14546849 0.029928371 -0.07469099 0.006771697 -0.020835327 0.089714885
0.12350164 0.08303696 -0.043874726 -0.070912346 0.03318541 -0.070091054 -0.105145365 0.07047207
-0.015159066 -0.0348877 -0.038404316 0.075152285 0.029188678 -0.1764733 0.11685969 -0.023409069
0.01982699 0.008073825 -0.03778427 0.021113357 0.013445099 0.035945937
00000000: 4d33 19be 6d8c 563d dbbd 04be be5b ccbc
00000010: 585d 31bd 2c57 853c b283 3abd 37ec 4ebd
00000020: 58fa 3b3d b542 a33c 033a f03d bd8f 6abc
00000030: 0f00 aa3d 1068 d1bd df7f 903d 1a10 843a
00000040: 5fe9 08bd 1637 fb3c ec4d 37bd 6d94 b53d
00000050: 444d 7c3d 6170 273c 6234 983b d118 553c
00000060: c30f 193d 1ca2 75bd ef68 dcbd df3d 1bbd
00000070: 924c ba3d 9f13 3c3e 70ea 023e 5ee6 f63c
00000080: dca4 0f3e b98d bcbd 7906 443d a478 3ebd
00000090: e417 8d3d 3799 673c 265b 21bd 6b8c 9f3d
000000a0: 6221 c63d ad66 053d 4cf2 e03d a585 0c3d
000000b0: 0793 2ebe 4e79 133c 1bc2 b13d 72c2 2c3c
000000c0: 8090 043e 7d69 973c 3dba 64bd d226 843d
000000d0: b754 ca3d 484b 21be c47c 10be ccdb 9bbd
000000e0: 8e2c 8a3d 5526 02be 2ede 8a3b 5949 03bd
000000f0: 0418 f4bd d518 003e b00b 333d 6997 a23c
00000100: d887 0c3d 64d7 bbbc 475b bbbd 5256 40bd
00000110: 5c9a 6fbd 4abf dcbd 3948 57bd 70d9 b2bc
00000120: eb7d 0fbe 8931 80bc 874c 98bd 3291 803d
00000130: 7628 313d d797 983d ab96 91bd 4231 983d
00000140: 6aab 9b3d adf9 86bd 4fb6 933d 6dd4 c13d
00000150: 0535 fb3c 6a13 c03d 3c8d 813d dfc9 aebc
00000160: b721 d8bb f098 ff3d 6f44 383e 645b e3bd
00000170: e85f ca3d 4e03 733d 6b60 16be b0ce 4d3c
00000180: e556 fd3d e2b9 153d c1eb 63bd 718a bb3b
00000190: 7c1b 873d ba87 ac3d 3125 21be 7b71 f43d
000001a0: fc10 90bd a6ea 5d3d f4ca c9bd dabe 953d
000001b0: 0e02 0f3e d42e 8ebd 88e9 48bd 8c5d a43d
000001c0: e62e b6bd dd9a d7bd 192f abbd c4e8 183d
000001d0: 5f6b fa3d 7401 243d dfa2 47bb cfc9 8f3c
000001e0: 972e 9d3c ef59 a23d b1f5 143e 582c f53c
000001f0: 97f7 98bd 1de5 dd3b d9ae aabc 70bc b73d
00000200: 6eee fc3d 480f aa3d fcb5 33bd 7e3a 91bd
00000210: 6ded 073d e68b 8fbd 7456 d7bd a953 903d
00000220: bb5d 78bc 68e6 0ebd d84d 1dbd 71e9 993d
00000230: 181d ef3c 6bb5 34be 2254 ef3d 60c4 bfbc
00000240: 366c a23c 1448 043c aec3 1abd ebf5 ac3c
00000250: d548 5c3c 0c3c 133d

en4.bias f4 [3]
-0.005021562 -0.13967429 -0.12470965
00000000: ea8b a4bb c706 0fbe c667 ffbd

de1.weight f4 [50, 3]
0.026711537 -0.34111726 0.005163649 -0.40701932 -0.2772595 -0.45993784 0.5787086 0.060979698
-0.50852257 0.5433595 0.62282026 0.14546558 -0.43055657 0.52397686 0.098049514 -0.25458708
-0.09496172 -0.09425479 0.39147583 -0.35103425 -3.749152e-05 -0.39523435 0.060917657 -0.3834575
0.3337414 0.67909694 0.07235737 0.37633693 0.39873442 -0.5242567 0.20208062 -0.36131108
-0.35251206 -0.43293175 -0.64769363 0.032293756 -0.6384746 -0.06357125 -0.08354554 -0.22732204
0.35881865 -0.24916956 -0.5122755 0.65009457 -0.74075073 -0.10900554 -0.63666546 -0.56676096
-0.6899205 -0.6452546 0.28141874 0.26213256 -0.24876893 -0.676845 0.34046707 0.5249416
0.07394978 0.10232924 -0.30039054 -0.566053 -0.28540456 -0.21048209 0.49609426 0.27889675
-0.35697535 -0.33526102 -0.16989052 -0.22927146 -0.034391332 -0.51779747 -0.33536187 0.45736971
-0.3645034 -0.42463127 0.758145 0.6040129 0.104178034 0.44257128 -0.24219233 -0.050147817
-0.49859312 0.660653 -0.5724807 0.23898435 -0.39004427 0.71358764 0.19874051 0.035926588
0.4452967 0.27400413 0.12417956 -0.46569398 -0.20768254 -0.7314441 0.5294368 -0.8918833
0.02358515 0.30858052 -0.5711058 0.5010384 0.1756729 0.7140298 0.0055131293 0.5673394
-0.35827342 -0.48523206 -0.42868635 -0.3083531 0.09680953 0.28960276 -0.26871946 -0.250749
0.7865231 -0.477374 0.40081662 0.62139857 -0.16827226 -0.2717688 0.5946392 -0.20365806
0.6455709 -0.07299374 -0.4245949 0.66732234 0.57862985 -0.3717842 0.43915674 -0.43538186
-0.24005656 -0.28003684 -0.18298481 -0.482976 -0.15904212 0.08408399 0.5089075 0.58917516
0.35795826 -0.5916186 0.13294168 0.6342859 -0.32869604 -0.5756865 -0.83332884 -0.033538684
0.50876033 0.49985024 0.07109824 0.21370395 -0.82452065 0.021436522
00000000: 27d2 da3c eca6 aebe d433 a93b d664 d0be
00000010: f5f4 8dbe f97c ebbe 3f26 143f d9c5 793d
00000020: 892e 02bf 9c19 0b3f 2671 1f3f eef4 143e
00000030: e971 dcbe 5923 063f 2fce c83d 3d59 82be
00000040: 4a7b c2bd a808 c1bd 856f c83e c3ba b3be
00000050: 3740 1db8 285c cabe cb84 793d 8b54 c4be
00000060: 27e0 aa3e 4cd9 2d3f 1a30 943d 3caf c03e
00000070: eb26 cc3e b035 06bf 39ee 4e3e c4fd b8be
00000080: 767c b4be 3ba9 ddbe 40cf 25bf 7546 043d
00000090: 1273 23bf a531 82bd ed19 abbd 1cc7 68be
000000a0: 14b7 b73e 4e26 7fbe 7d24 03bf 996c 263f
000000b0: d7a1 3dbf 4c3e dfbd 82fc 22bf 3f17 11bf
000000c0: a19e 30bf 682f 25bf 1e16 903e 3d36 863e
000000d0: 48bd 7ebe b745 2dbf b351 ae3e 9362 063f
000000e0: fb72 973d fe91 d13d cacc 99be d9e8 10bf
000000f0: 8c20 92be 9e88 57be 1100 fe3e 8ecb 8e3e
00000100: 79c5 b6be 55a7 abbe c8f7 2dbe 23c6 6abe
00000110: eddd 0cbd 608e 04bf 8db4 abbe 5d2c ea3e
00000120: 31a0 babe 4569 d9be ca15 423f 97a0 1a3f
00000130: 4b5b d53d b498 e23e 4401 78be cc67 4dbd
00000140: 9947 ffbe 8e20 293f 188e 12bf 50b8 743e
00000150: e2b3 c7be aead 363f a282 4b3e c227 133d
00000160: eefd e33e 454a 8c3e da51 fe3d 716f eebe
00000170: bbaa 54be ec3f 3bbf 2c89 073f 7752 64bf
00000180: a535 c13c 44fe 9d3e fd33 12bf 0d44 003f
00000190: 99e3 333e a8ca 363f 7ba7 b43b 283d 113f
000001a0: 9d6f b7be 5670 f8be c77c dbbe 75e0 9dbe
000001b0: 1344 c63d d046 943e 9995 89be 2c62 80be
000001c0: 9459 493f 5d6a f4be d637 cd3e fa13 1f3f
000001d0: 904f 2cbe 4825 8bbe 463a 183f bd8b 50be
000001e0: 2244 253f be7d 95bd 8164 d9be a3d5 2a3f
000001f0: 1621 143f 805a bebe 27d9 e03e 5fea debe
00000200: 63d1 75be fd60 8fbe 5f60 3bbe a148 f7be
00000210: f0db 22be 3a34 ac3d c347 023f 2fd4 163f
00000220: 4e46 b73e 5174 17bf dd21 083e 9060 223f
00000230: d94a a8be 3160 13bf 0a55 55bf dc5f 09bd
00000240: 1e3e 023f 5fec ff3e f49b 913d 35d5 5a3e
00000250: c913 53bf a59b af3c

de1.bias f4 [50]
0.5585946 0.41460666 -0.12544796 -0.2937363 -0.23567988 0.46250442 -0.5596468 -0.0064293616
0.2611102 -0.53816795 0.5656357 0.56252617 0.0993913 0.44223505 -0.029260522 0.113758765
0.17115428 0.18054092 -0.17086965 -0.028564323 0.16681828 -0.50887316 -0.15194193 0.24188665
-0.4896473 0.024907637 0.45291665 -0.13275024 0.10801649 -0.30819145 0.37261033 -0.41731098
0.3381924 0.40515864 0.5161184 -0.13554034 -0.5714723 0.426239 -0.18376158 0.3582091
-0.23312277 -0.47240454 -0.53807956 0.12112927 -0.027014304 -0.013731138 -0.28065354 -0.34931952
0.034268707 0.054248173
00000000: 0e00 0f3f 5347 d43e 6e75 00be 9b64 96be
00000010: 1156 71be 61cd ec3e 0345 0fbf 65ad d2bb
00000020: 3cb0 853e 60c5 09bf 80cd 103f b701 103f
00000030: aa8d cb3d a26c e23e c3b3 efbc 5bfa e83d
00000040: 1143 2f3e b8df 383e 74f8 2ebe baff e9bc
00000050: 69d2 2a3e 8345 02bf aa96 1bbe 22b1 773e
00000060: 0db3 fabe 1a0b cc3c b1e4 e73e aeef 07be
00000070: c037 dd3d 45cb 9dbe c8c6 be3e c9a9 d5be
00000080: 8e27 ad3e f470 cf3e 5620 043f 16cb 0abe
00000090: 024c 12bf 003c da3e ff2b 3cbe 2f67 b73e
000000a0: bcb7 6ebe 02df f1be 95bf 09bf 9f12 f83d
000000b0: 1a4d ddbc 91f8 60bc d2b1 8fbe 02da b2be
000000c0: 585d 0c3d 5533 5e3d

de2.weight f4 [100, 50]
0.14056928 -0.10326265 -0.19598877 -0.02325268 0.046026405 0.05602634 -0.06651823 0.18365194
0.016995145 -0.15396525 0.055611245 -0.12869179 0.1997098 0.08105927 0.13690956 -0.1764426
-0.022370597 -0.12141027 -0.028328082 -0.04512742 0.18554512 -0.25718194 -0.09000401 0.27258345
-0.020372879 -0.096149534 -0.010013389 -0.064467564 -0.0878206 -0.13983952 0.082399555 -0.05363347
-0.10173625 -0.18177445 -0.07748112 0.039817415 -0.16412413 0.055230122 0.013110712 0.042785913
-0.27411148 0.049885318 -0.08496798 -0.023896638 0.117124744 -0.22183885 -0.17716634 0.22823021
0.02903658 0.046754964 0.06099681 0.03439307 -0.23997264 0.14693621 0.086480945 -0.03324911
-0.2088783 0.17107435 0.17813283 0.06097447 0.0341341 0.02897434 0.0042808154 -0.04705309
0.057727873 -0.21314335 0.08025824 0.067900166 0.14469284 -0.20718391 0.12500623 0.048563443
0.10161767 -0.026025027 0.04680489 0.008763611 -0.10458597 -0.15816256 0.3244547 0.08716074
-0.015915137 0.08710145 0.03429702 0.10045987 -0.032607544 0.052146003 -0.066220686 -0.02820949
0.13445905 0.0636696 -0.2664116 0.0051575927 -0.20849837 -0.16858977 0.2850519 -0.1045467
-0.104359314 -0.16893618 -0.061799973 -0.23256423 -0.056247298 -0.41923234 -0.0037404515 0.16794556
0.21224381 -0.1453783 0.097380705 -0.03720095 0.041224893 0.16425839 -0.07414108 -0.01767723
-0.072645985 0.037610844 -0.10499663 -0.121625245 -0.06615988 -0.036082078 0.10544017 -0.0366177
-0.040672883 -0.04833561 0.033766795 -0.03696083 0.14798072 0.009317894 -0.00437846 0.23950167
-0.003513092 0.23146753 -0.03957716 -0.18820217 -0.07539935 0.17087422 -0.15464562 -0.092615746
0.23741078 -0.02312271 -0.023125552 0.009897179 0.12408233 0.06391226 0.0151650505 -0.009920955
-0.08799266 0.062629834 0.03316981 -0.10758775 0.0512498 -0.08130952 0.18810588 0.192585
-0.117803924 -0.27695465 -0.123199575 0.20506066 -0.08156576 -0.06970319 0.00494987 -0.23036239
0.07515741 0.40487188 -0.06472412 0.1604937 -0.12531523 0.09488126 0.041732375 -0.043532155
-0.12427489 -0.21829426 0.30547217 -0.11218162 0.09273342 0.13205373 -0.13732913 0.044493563
-0.0045877546 0.009005197 -0.006851883 0.013371577 0.2006813 -0.30946812 -0.0917242 0.16902745
0.16627383 -0.046083573 -0.17508641 0.16956282 -0.25640687 0.084356576 -0.29665568 -0.41667724
-0.19118875 -0.13649333 0.11769147 -0.19868527 -0.12192656 0.0054452997 -0.103627734 0.15367846
-0.16704603 -0.2813092 -0.0785577 0.034961604 0.1857993 -0.01678611 0.16953179 -0.09118609
-0.0021156224 -0.06826721 0.009720649 0.16019997 -0.1393905 -0.0074878098 0.11119771 0.058772948
-0.08021486 0.04229407 0.016297437 -0.06685348 0.028199134 -0.03860004 -0.033025738 -0.010217509
0.103373796 -0.14298807 -0.12051885 0.08076678 0.118684106 0.11027913 -0.117251754 0.060513258
-0.08537625 -0.05866926 -0.067070484 0.11160618 -0.038966242 0.17293403 -0.008049664 -0.14259715
-0.0059782434 -0.1976879 0.052688476 0.037541136 -0.0038123094 0.05957511 -0.008101538 -0.16002558
0.07195222 0.008898894 0.0234156 0.03604258 0.21218391 0.013737065 -0.065897785 -0.1817072
00000000: 65f1 0f3e 5e7b d3bd 48b1 48be 687c bebc
00000010: 2f86 3c3d e07b 653d b63a 88bd 410f 3c3e
00000020: 6739 8b3c 11a9 1dbe 9ec8 633d c8c7 03be
00000030: ba80 4c3e 6702 a63d 0532 0c3e 5ead 34be
00000040: 8b42 b7bc f3a5 f8bd 4b10 e8bc 88d7 38bd
00000050: 8aff 3d3e 5aad 83be 0654 b8bd 0f90 8b3e
00000060: 06e5 a6bc 0cea c4bd 330f 24bc 9207 84bd
00000070: 49db b3bd 1732 0fbe 19c1 a83d c5ae 5bbd
00000080: 185b d0bd 1523 3abe 6cae 9ebd 9617 233d
00000090: 2810 28be fb38 623d 50ce 563c 4840 2f3d
000000a0: 5758 8cbe 8c54 4c3d b103 aebd e2c2 c3bc
000000b0: 19df ef3d b929 63be 186b 35be 2eb5 693e
000000c0: 1fde ed3c 2282 3f3d cbd7 793d bfdf 0c3d
000000d0: 63bb 75be 7276 163e ec1c b13d 3830 08bd
000000e0: 31e4 55be 1d2e 2f3e 7468 363e 5ec0 793d
000000f0: 33d0 0b3d 985b ed3c 1546 8c3b beba 40bd
00000100: 1074 6c3d 4042 5abe 6f5e a43d 3e0f 8b3d
00000110: 5c2a 143e 0528 54be a201 003e 76ea 463d
00000120: ed1c d03d 7032 d5bc 7cb6 3f3d 4095 0f3c
00000130: 2b31 d6bd 5ef5 21be ed1e a63e 5481 b23d
00000140: 7660 82bc 3f62 b23d 087b 0c3d e8bd cd3d
00000150: 7d8f 05bd 0c97 553d b69e 87bd 9717 e7bc
00000160: a2af 093e 3565 823d 1a67 88be 0601 a93b
00000170: 9980 55be cca2 2cbe 53f2 913e 951c d6bd
00000180: 56ba d5bd 9bfd 2cbe f821 7dbd 5125 6ebe
00000190: 9163 66bd 9fa5 d6be 5d22 75bb ecf9 2b3e
000001a0: 7156 593e 0dde 14be 896f c73d 0660 18bd
000001b0: 6fdb 283d 5a33 283e 47d7 97bd d7cf 90bc
000001c0: 6bc7 94bd d40d 1a3d 7908 d7bd a816 f9bd
000001d0: d57e 87bd cdca 13bd 04f1 d73d 71fc 15bd
000001e0: 9c98 26bd 90fb 45bd 0d4f 0a3d 3d64 17bd
000001f0: 4288 173e 14aa 183c 2f79 8fbb ed3f 753e
00000200: e73b 66bb d305 6d3e a91b 22bd 12b8 40be
00000210: f96a 9abd a7f9 2e3e 6c5b 1ebe 53ad bdbd
00000220: d01b 733e d66b bdbc cc71 bdbc c727 223c
00000230: e01e fe3d 6ee4 823d d576 783c 808b 22bc
00000240: 7f35 b4bd 1244 803d 11dd 073d f756 dcbd
00000250: 4feb 513d 9b85 a6bd d49e 403e 0135 453e
00000260: 2f43 f1bd 00cd 8dbe 0f50 fcbd 6cfb 513e
00000270: f30b a7bd 8cc0 8ebd 8532 a23b 1ee4 6bbe
00000280: 21ec 993d 5e4b cf3e 148e 84bd 7658 243e
00000290: a352 00be 1b51 c23d 91ef 2a3d c64e 32bd
000002a0: d583 febd 8888 5fbe d966 9c3e 7abf e5bd
000002b0: 05eb bd3d 1839 073e 02a0 0cbe e23e 363d
000002c0: e054 96bb 898a 133c c385 e0bb 7514 5b3c
000002d0: 667f 4d3e 9b72 9ebe e6d9 bbbd 8815 2d3e
000002e0: b043 2a3e 21c2 3cbd da49 33be e0a1 2d3e
000002f0: c347 83be 24c3 ac3d 41e3 97be b856 d5be
00000300: fcc6 43be e8c4 0bbe 3a08 f13d 2774 4bbe
00000310: a2b4 f9bd 7c6e b23b c73a d4bd e35d 1d3e
00000320: 1d0e 2bbe c207 90be dce2 a0bd e633 0f3d
00000330: 2c42 3e3e 0683 89bc be99 2d3e c6bf babd
00000340: 41a6 0abb aecf 8bbd 5b43 1f3c 760b 243e
00000350: 62bc 0ebe 4d5c f5bb a0bb e33d e7bb 703d
00000360: b047 a4bd 8c3c 2d3d 3482 853c 7aea 88bd
00000370: df01 e73c 131b 1ebd ff45 07bd 5767 27bc
00000380: a4b5 d33d 776b 12be 96d2 f6bd 0e69 a53d
00000390: a710 f33d 06da e13d b021 f0bd c0dc 773d
000003a0: bed9 aebd 2e4f 70bd 405c 89bd c891 e43d
000003b0: 119b 1fbd 9e15 313e bde2 03bc fd04 12be
000003c0: 24e5 c3bb b26e 4abe dfcf 573d bcc4 193d
000003d0: f0d7 79bb 0805 743d 50bc 04bc bfdd 23be
000003e0: af5b 933d abcc 113c 13d2 bf3c 62a1 133d
000003f0: bd46 593e 6d11 613c 6bf5 86bd 7411 3abe

de2.bias f4 [100]
0.18345755 0.022404352 -0.046309393 0.09610922 -0.17372414 -0.08123914 0.09978112 0.04427094
0.15686275 -0.09239273 0.20349619 0.12381778 -0.13938773 -0.3296221 -0.0793984 0.14704116
0.10825937 0.14016226 0.11732994 -0.06238447 0.18510592 -0.0679081 0.030345103 -0.09055945
0.035344403 -0.0023840368 0.13777484 -0.12535025 -0.011344596 -0.0666178 -0.06160921 -0.030178986
0.13488588 -0.21222115 0.018973868 0.018949956 -0.06519276 0.19412853 -0.006222999 -0.07248092
-0.21583618 0.055622365 -0.13988322 0.16012491 0.1965503 0.1466213 -0.1769378 -0.067498535
-0.14110936 -0.09483339 0.15214737 -0.007870314 -0.014169588 0.12003771 -0.0045815133 -0.14361352
-0.108434655 0.11294656 0.01059002 0.04945526 0.013487596 0.14249879 -0.116222695 0.12387653
0.15038826 0.09024776 -0.16571353 -0.06667428 0.10475269 -0.046545275 -0.034308597 -0.21373086
0.16698588 0.007489623 0.21140973 -0.14238732 0.05450086 0.21662371 0.14058544 -0.11682088
0.21692166 0.23632966 0.056461573 0.19248465 0.03557149 -0.086067155 0.14472854 -0.0009772538
-0.22734629 -0.18087403 0.06993038 -0.12229117 0.11142105 -0.01949836 0.020062989 -0.088180415
0.15080637 -0.17928791 -0.020752601 0.013120506
00000000: 4cdc 3b3e 5589 b73c ebae 3dbd e9d4 c43d
00000010: bee4 31be b560 a6bd 0b5a cc3d 7255 353d
00000020: a1a0 203e 6638 bdbd 4e61 503e 2d94 fd3d
00000030: a8bb 0ebe 3ac4 a8be a19b a2bd f591 163e
00000040: 17b7 dd3d b286 0f3e ae4a f03d dc86 7fbd
00000050: 688c 3d3e 6713 8bbd 4b96 f83c 3c77 b9bd
00000060: 4bc5 103d 803d 1cbb d914 0d3e d15b 00be
00000070: afde 39bc ea6e 88bd f059 7cbd ec39 f7bc
00000080: 861f 0a3e 8050 59be 166f 9b3c f03c 9b3c
00000090: c883 85bd a1c9 463e 4dea cbbb e070 94bd
000000a0: 2904 5dbe 47d4 633d 8c3d 0fbe c9f7 233e
000000b0: 7b44 493e e523 163e 2f2f 35be ac3c 8abd
000000c0: f97e 10be 0238 c2bd 85cc 1b3e 7df2 00bc
000000d0: 8f27 68bc 55d6 f53d 8520 96bb 6c0f 13be
000000e0: fd12 debd 8750 e73d c381 2d3c 9991 4a3d
000000f0: 14fb 5c3c 34eb 113e 2a06 eebd fab2 fd3d
00000100: 61ff 193e d1d3 b83d cfb0 29be 868c 88bd
00000110: 9488 d63d 42a6 3ebd 2c87 0cbd 43dc 5abe
00000120: 59fe 2a3e 836b f53b cb7b 583e fbcd 11be
00000130: 4b3c 5f3d 9bd2 5d3e a1f5 0f3e c93f efbd
00000140: b620 5e3e 6700 723e 4044 673d b21a 453e
00000150: 69b3 113d fa43 b0bd b833 143e 3217 80ba
00000160: 77cd 68be 0b37 39be a937 8f3d cb73 fabd
00000170: b830 e43d 06bb 9fbc 235b a43c ef97 b4bd
00000180: fc6c 1a3e 4097 37be 5c01 aabc 64f7 563c
